trained_model.safetensors (safetensors, 70160 bytes, 6 tensors)

params:::Dense_0:::bias f4 [128]
0	0x3d1499a7	0.036279347
1	0xbc5c141d	-0.01343253
2	0xbc500da8	-0.012698568
3	0x3d0d1d67	0.03445187
4	0x3d6f80d8	0.058472484
5	0xbb5cb898	-0.0033679362
6	0xbc96dda5	-0.018416235
7	0x39c87146	0.00038231368
8	0x3d2c3bc2	0.042049177
9	0x3d538127	0.05163684
10	0x3d46e27f	0.048555847
11	0xbca8cd36	-0.020605665
12	0x3d470ce7	0.04859629
13	0x3d2c4de4	0.04206647
14	0x3c0c010c	0.0085451715
15	0x3d8d9e36	0.06914942
16	0xbce47c12	-0.027891193
17	0xbc98c20d	-0.018647218
18	0x3d5de5ea	0.05417434
19	0xbd016145	-0.031586904
20	0xbd491a40	-0.0490973
21	0x3d862bea	0.06551345
22	0x3d219e2d	0.03945749
23	0x3da5e4a7	0.081002526
24	0x3d54840d	0.051883746
25	0x3d95260a	0.07282646
26	0xbcaa288b	-0.020771286
27	0xbcc6c441	-0.024263503
28	0x3d8ac66b	0.067761265
29	0x3d98089b	0.07423516
30	0x3d58b4c0	0.05290675
31	0x3c0e3c3b	0.008681352
32	0x3d1d61ba	0.038423277
33	0x3bc86789	0.006115858
34	0x3d10a941	0.035317663
35	0x3d341e22	0.04397405
36	0xbb6f6eba	-0.0036534504
37	0x3c47789b	0.012174751
38	0x3da2d1aa	0.079501465
39	0x3d06f751	0.032950703
40	0x3d221453	0.039570164
41	0x3d7273c0	0.05919242
42	0x3d93759a	0.07200165
43	0x3d1269a4	0.035745278
44	0x3d34c556	0.044133507
45	0x3d0c5ab1	0.034266178
46	0x3d3b4d43	0.04572798
47	0x3d941b24	0.07231739
48	0x3d492b06	0.049113296
49	0x3d2ce397	0.042209234
50	0x3d3cde55	0.04611047
51	0x3d335e8a	0.04379133
52	0x3d8d0c8b	0.06887158
53	0xbc4f527a	-0.012653941
54	0x3d286524	0.04111208
55	0x3d76ca52	0.06025154
56	0x3d056db9	0.032575343
57	0x3cdd9c7a	0.027052153
58	0x3d260db5	0.040540416
59	0x3d416edc	0.047224864
60	0xbc6ba708	-0.014383085
61	0x3d3b21f2	0.04568667
62	0x3d5c0f2a	0.0537254
63	0xbc9e31fc	-0.019310944
64	0x3d221f76	0.039580785
65	0x3d5c9212	0.05385024
66	0x3d1ef44d	0.038807202
67	0xbcce006d	-0.025146687
68	0xbd159d7d	-0.036527146
69	0x3d862693	0.06550326
70	0x3cb04f5d	0.021522218
71	0x3d89f94b	0.06737002
72	0x3d2ae2bb	0.041720133
73	0x3d55c9db	0.052194458
74	0xbc0df99b	-0.008665468
75	0x3d8a4e02	0.0675316
76	0x3d10b7f3	0.035331678
77	0x3d217a57	0.039423313
78	0xbce399ca	-0.027783293
79	0x3d6f473f	0.058417555
80	0x3d489c1a	0.048976995
81	0xbc8f5835	-0.017498115
82	0x3d19c7b3	0.037543964
83	0xbc2a525e	-0.010395614
84	0x3d9b85fa	0.075939134
85	0x3d9b402c	0.07580599
86	0x3d2a898f	0.041635092
87	0x3d38bf0f	0.045104083
88	0xbd03a7d0	-0.03214246
89	0x3d908158	0.0705592
90	0xbb3d5a23	-0.0028892837
91	0x3d6bd955	0.05758031
92	0x3d5a4e9a	0.053297617
93	0xbc23459a	-0.009965325
94	0xba95785f	-0.0011403671
95	0x3d906b6f	0.07051741
96	0x3d30fd40	0.043210268
97	0x3d911346	0.07083754
98	0x3d82b7ff	0.06382751
99	0x3d45cd53	0.048291516
100	0x3d3ec289	0.046572242
101	0xbd062987	-0.032754447
102	0x3d985003	0.07437136
103	0xbcc94a7c	-0.02457165
104	0xbc7aac45	-0.015299861
105	0x3d9f322b	0.07773241
106	0xbcc2c0ff	-0.023773668
107	0x3d2c3227	0.042040017
108	0x3ce5d70d	0.028056646
109	0xbc70fbaf	-0.014708444
110	0x3d351004	0.044204727
111	0xbc53aab8	-0.0129191205
112	0x3d70ea30	0.05881709
113	0x3d1e8d1e	0.0387088
114	0xbc2dd05e	-0.010608761
115	0x3d6a18b8	0.05715248
116	0x3d3a9619	0.0455533
117	0x3d6a5587	0.05721047
118	0xbc619478	-0.013768308
119	0x3c5e9f53	0.013587791
120	0xbc16f1c9	-0.0092129195
121	0x3c8a868e	0.016909864
122	0xbc1ee0c1	-0.00969714
123	0x3d79adb0	0.060956657
124	0x3d72ca88	0.05927518
125	0x3d7173dd	0.058948386
126	0x3d367c69	0.04455224
127	0x3d24f23f	0.040270086

params:::Dense_0:::kernel f4 [4, 128]
0	0xbe368433	-0.17823867
1	0xbc4aed6b	-0.012385706
2	0xbf07d533	-0.5305969
3	0xbd6aa3c0	-0.05728507
4	0x3ed80b63	0.42196187
5	0x3f418b26	0.7560295
6	0xbeee9613	-0.46598873
7	0x3f13386f	0.57507986
8	0xbf433fe3	-0.7626936
9	0xbf02f685	-0.5115741
10	0xbcf237cd	-0.029567624
11	0xbf4538e6	-0.77039945
12	0xbf0b9b55	-0.5453389
13	0x3f8bd611	1.0924703
14	0x3f525940	0.82167435
15	0x3e925acc	0.28584898
16	0x3f7caa03	0.9869692
17	0x3f0eec83	0.5582964
18	0xbda38e13	-0.07986083
19	0xbe59f6cb	-0.2128555
20	0xbe3a73ff	-0.18208311
21	0x3e72346a	0.23652807
22	0x3e9ba276	0.30397385
23	0x3eca607b	0.39526734
24	0xbd6863c0	-0.056735754
25	0x3f1a8877	0.6036448
26	0x3f30fbeb	0.69134396
27	0xbec86cd8	-0.3914554
28	0xbf7d9327	-0.9905266
29	0xbe0cfd4a	-0.13768497
30	0xbeb0181b	-0.3439339
31	0xbe8adf82	-0.27123648
32	0xbed3b53b	-0.41349205
33	0x3f853748	1.0407495
34	0x3f459a55	0.77188617
35	0x3ee6e4fa	0.4509657
36	0x3f263407	0.6492314
37	0xbf6ca058	-0.92432165
38	0x3ebffca4	0.37497437
39	0xbe9f7297	-0.31142113
40	0xbf0fd652	-0.561864
41	0xba5fe68f	-0.0008541131
42	0xbf208e1f	-0.6271686
43	0xbe85063e	-0.25981325
44	0x3f89919f	1.0747565
45	0x3f1fdce9	0.6244646
46	0x3c6259a7	0.01381532
47	0xbeb7b90b	-0.35883364
48	0xbeb2ae1c	-0.3489846
49	0x3eb7c19f	0.3588991
50	0xbf3a6283	-0.72806567
51	0xbdef880b	-0.1169587
52	0xbdbfaa35	-0.09358636
53	0xbe250067	-0.16113435
54	0xbf5a4757	-0.85265106
55	0x3f81047a	1.0079491
56	0xbf626abf	-0.8844413
57	0x3f622d1f	0.883501
58	0x3e3e953b	0.18611614
59	0xbe02e70c	-0.1278345
60	0x3c7904eb	0.015198926
61	0x3ece50c5	0.40295997
62	0xbdab578b	-0.08366307
63	0x3b6e94a0	0.0036404505
64	0x3e8535b7	0.26017544
65	0x3eb3599b	0.350293
66	0xbef071ed	-0.46961918
67	0xbf50e41a	-0.81598055
68	0x3e78a97a	0.242834
69	0xbf1b1322	-0.6057607
70	0xbf3ce483	-0.7378618
71	0x3eae9a22	0.3410197
72	0x3e897be2	0.26852328
73	0x3f10e060	0.5659237
74	0xbf080a87	-0.53141063
75	0xbf1192b8	-0.568645
76	0xbed4e9af	-0.41584536
77	0x3d3de3c1	0.04635978
78	0xbd53cf18	-0.051711172
79	0xbe1acbe9	-0.15116848
80	0xbf0d088b	-0.5509116
81	0xbefa2a05	-0.48860183
82	0x3ed8732f	0.42275378
83	0xbf73314f	-0.94997114
84	0x3cbf52de	0.023354944
85	0x3f3b889a	0.7325531
86	0xbeb7b3c3	-0.35879335
87	0xbe799cb3	-0.24376182
88	0x3e0f0574	0.13966924
89	0x3e66cde0	0.22539473
90	0x3ebc8941	0.36823466
91	0x3eacfb98	0.337857
92	0x3ecd05f8	0.40043616
93	0xbef979da	-0.48725778
94	0xbeb71d0b	-0.35764346
95	0xbec3c8af	-0.38239047
96	0xbf723400	-0.94610596
97	0x3f5dd4a5	0.86652595
98	0x3e329921	0.17441227
99	0xbe34509f	-0.1760888
100	0x3f1eef1d	0.6208361
101	0x3f1f00a3	0.62110347
102	0x3deca0d5	0.11554114
103	0xbcd20b73	-0.025640225
104	0xbe752a13	-0.23941831
105	0xbe5d2bca	-0.21598735
106	0xbf403e65	-0.75095206
107	0x3e3da810	0.18521142
108	0x3e1789a6	0.14798602
109	0x3f3d9707	0.74058574
110	0xbf5df81a	-0.867067
111	0x3e86a9e7	0.263015
112	0x3f84a3c7	1.0362481
113	0xbf42624a	-0.7593123
114	0xbe21dc3f	-0.15806673
115	0xbeb402f5	-0.35158506
116	0x3eda2462	0.42605883
117	0x3dd1c5b0	0.10242784
118	0x3ef19de5	0.47190776
119	0xbf0551eb	-0.5207812
120	0x3ec610eb	0.38684782
121	0xbf06ba7b	-0.52628297
122	0xbcb4867a	-0.02203678
123	0x3f32d915	0.6986249
124	0x3f168933	0.588031
125	0x3f2cc736	0.6749147
126	0xbf6c8735	-0.9239381
127	0xbf040f1a	-0.51585543
128	0x3e97c867	0.29645082
129	0x3e426978	0.18985546
130	0x3c4e0dfa	0.012576574
131	0x3f81fe1f	1.0155677
132	0xbeb72a6d	-0.35774556
133	0x3ebdcc71	0.3707004
134	0xbd8e0431	-0.06934393
135	0x3f305b4f	0.68889326
136	0x3f4dd8da	0.80409014
137	0xbf17c9d5	-0.59292346
138	0xbf5548b5	-0.8331407
139	0x3f518ed8	0.8185859
140	0xbe64a923	-0.22330146
141	0xbf1dd4cf	-0.61652845
142	0xbe834f92	-0.25646645
143	0x3f69309a	0.91089785
144	0xbc8d4517	-0.017244859
145	0x3e68e795	0.22744592
146	0x3e8ce717	0.27520058
147	0xbe90dfc3	-0.28295717
148	0xbe570203	-0.20996861
149	0xbe92a588	-0.28641915
150	0x3f5091cb	0.8147246
151	0x3cb83f25	0.022491047
152	0x3da95b07	0.08269315
153	0x3f0863bd	0.5327719
154	0xbf79577a	-0.97399104
155	0xbf4711df	-0.77761644
156	0x3ec7d491	0.39029363
157	0x3e714697	0.23562084
158	0xbf485446	-0.7825359
159	0x3eff04cd	0.4980835
160	0xbf80c017	-1.0058621
161	0x3f2bd546	0.67122304
162	0xbf311feb	-0.6918933
163	0x3f43c6d9	0.7647529
164	0xbf3a3c64	-0.727484
165	0x3f89b5b8	1.0758581
166	0xbe30ecff	-0.17277907
167	0x3f6ef6ad	0.9334515
168	0x3ec7d555	0.39029947
169	0xbf62a282	-0.8852922
170	0x3ed5dcc7	0.41770002
171	0xbed0b437	-0.40762493
172	0xbdcc541f	-0.09976982
173	0x3ebbfb0f	0.3671498
174	0xbe6223d5	-0.22083981
175	0x3d571b82	0.052516468
176	0x3f083a24	0.53213716
177	0x3eb1a6ca	0.34697562
178	0x3ed76baa	0.4207433
179	0xbeb4b2f0	-0.35292768
180	0x3c6722e8	0.014107443
181	0x3eced16b	0.40394148
182	0x3e826eeb	0.2547525
183	0xbe984648	-0.2974112
184	0xbf78a6df	-0.97129625
185	0xbebb4504	-0.36576092
186	0xbf3a983e	-0.72888553
187	0xbf7a0f9b	-0.9768006
188	0x3ba60a82	0.0050671706
189	0xbec56980	-0.38557053
190	0xbf1fcf73	-0.6242592
191	0x3e9dd375	0.3082539
192	0xbe113963	-0.14182048
193	0x3ee8612b	0.45386633
194	0x3e4efbef	0.20213293
195	0xbe3274bb	-0.17427342
196	0xbe5a971f	-0.2134671
197	0xbf293aa7	-0.6610512
198	0x3f6542a8	0.89554834
199	0x3f69fa90	0.91397953
200	0xbb91fb96	-0.00445504
201	0x3ddc4b45	0.10756544
202	0xbf52cb42	-0.82341397
203	0x3f06ba93	0.5262844
204	0x3f8071f8	1.003478
205	0x3e82add9	0.2552326
206	0xbe6adacf	-0.22935031
207	0xbe375789	-0.17904486
208	0xbf3de3fe	-0.74176013
209	0x3db68f66	0.0891407
210	0x3f5262a5	0.8218177
211	0xbed2b15b	-0.41150936
212	0xbcf875d2	-0.030329619
213	0xbe235ced	-0.15953417
214	0x3f4ef7b7	0.8084673
215	0xbf8a06b4	-1.0783296
216	0x3e5f77e5	0.2182308
217	0xbefb25b2	-0.49052197
218	0x3e68b25d	0.2272429
219	0x3f6ef7db	0.9334695
220	0x3ee09788	0.4386561
221	0x3f690235	0.9101899
222	0x3dfd438d	0.123664
223	0x3ec06e62	0.37584215
224	0x3e7ecc35	0.24882586
225	0x3ea17edd	0.31542102
226	0xbcf8d69b	-0.03037577
227	0xbf31c5c3	-0.69442385
228	0xbf722228	-0.9458337
229	0xbf457254	-0.77127576
230	0x3f2679fb	0.6502988
231	0xbe3fa67f	-0.18715857
232	0xbd2708aa	-0.040779747
233	0x3bfe199b	0.0077545173
234	0x3e3468df	0.1761813
235	0x3e9497cb	0.2902206
236	0xbf76bfa0	-0.96386147
237	0xbd4bc98b	-0.049752753
238	0xbf3f3448	-0.7468915
239	0x3f13901f	0.57641786
240	0xbea33c1a	-0.3188179
241	0xbef5a217	-0.47975227
242	0x3e2ecc5e	0.17070147
243	0xbf4010eb	-0.75025815
244	0xbed67987	-0.41889593
245	0x3ec9e344	0.39431202
246	0x3ee2387a	0.44183713
247	0x3f6e9485	0.9319537
248	0x3f8b4197	1.0879391
249	0xbe58de9a	-0.21178666
250	0xbe8fc65f	-0.28081033
251	0x3dd0a757	0.101881675
252	0xbf2a051d	-0.6641405
253	0x3e5e9eaf	0.2174022
254	0x3f3f47d7	0.74718994
255	0x3e3c6719	0.18398704

params:::Dense_1:::bias f4 [128]
0	0xbc935140	-0.017983079
1	0x3d9a05c3	0.0752063
2	0x3cfb7d67	0.030699445
3	0xbcc0b5ff	-0.023524283
4	0x3d5155d2	0.051107235
5	0xbc7fe8aa	-0.015619436
6	0xbc20357b	-0.009778376
7	0xbc34dc2a	-0.011038819
8	0x3d09e3e2	0.03366459
9	0xbc0ccfa7	-0.00859443
10	0xbbd0a72d	-0.006367585
11	0xbc221254	-0.009892065
12	0xbca88ef0	-0.02057597
13	0xbca03893	-0.019558227
14	0x3d8c5ef7	0.068540506
15	0x3d96e682	0.073681846
16	0x3d0d8d6e	0.034558706
17	0xbc49be25	-0.0123134
18	0x3d1197f8	0.03554532
19	0xbc2b7da7	-0.01046697
20	0xbc89fd58	-0.016844437
21	0xbc861050	-0.0163652
22	0x3d9c78ba	0.07640214
23	0x3d5ec75b	0.05438934
24	0x394b36a2	0.00019379941
25	0x3d329031	0.043594543
26	0xba681d22	-0.0008854439
27	0xbc45ee53	-0.012080747
28	0x3d897f95	0.067137875
29	0xbcabd473	-0.020975327
30	0x3cf8a643	0.030352717
31	0x3cfe1350	0.031015068
32	0x3d00bd0f	0.0314303
33	0x3cf4dcaf	0.029890386
34	0x3d10f58d	0.035390425
35	0xbb78e4aa	-0.0037978091
36	0x3d1f6419	0.03891382
37	0x3d0e6d81	0.0347724
38	0x3d51617a	0.05111835
39	0xbcbff222	-0.023430888
40	0x3d3a5312	0.04548938
41	0x3bdf9d58	0.0068241768
42	0xbbdb734d	-0.0066970945
43	0x3d6761ed	0.056489874
44	0x3d601c45	0.05471446
45	0x3c0740b2	0.008255171
46	0x3d01b65f	0.031668063
47	0xbbe52170	-0.0069925115
48	0xbc50b5ba	-0.0127386395
49	0xbc1d9f09	-0.0096204365
50	0x399e0511	0.00030139883
51	0xbc267b93	-0.010161298
52	0xbc6224a5	-0.013802682
53	0xbc1c8c23	-0.009554896
54	0x3d3c3309	0.04594711
55	0x3d1fd41f	0.039020654
56	0x3d0fe859	0.035133693
57	0x3d7aea0a	0.061258353
58	0x3d0551f2	0.032548852
59	0xbc339e0f	-0.010962977
60	0x3caa49d5	0.020787159
61	0xb9f0f4a5	-0.00045958642
62	0xbc89793b	-0.01678144
63	0x3d1b6905	0.03794195
64	0x3d30bbd2	0.04314787
65	0xbbe4013f	-0.0069581564
66	0x3d16cef8	0.036818475
67	0x3d043337	0.032275405
68	0xbc1d7620	-0.009610683
69	0x3cd5770b	0.02605774
70	0xbc8a1304	-0.01685477
71	0x3d01610b	0.031586688
72	0xbc45c0bf	-0.01206988
73	0x3d6eb520	0.058278203
74	0x3d89237b	0.066962205
75	0xbc8db947	-0.017300261
76	0xbc20ab8d	-0.009806526
77	0x3d154f35	0.03645249
78	0xbc86493d	-0.016392345
79	0xbc862922	-0.016377036
80	0xbc9ee7ef	-0.019397704
81	0x3d46138a	0.048358478
82	0x3d2ce65a	0.042211868
83	0x3d21b931	0.039483253
84	0x3d14a5f9	0.036291096
85	0xbcc1ad5f	-0.02364224
86	0x3d045a76	0.032312833
87	0x3d05f685	0.032705802
88	0xbbf21870	-0.007388167
89	0xbc8c49a4	-0.017124958
90	0xbc2c06d9	-0.0104996795
91	0x3d1ebf22	0.038756497
92	0x3d23dbd7	0.040004577
93	0xbc6c28d5	-0.014414032
94	0x3d592b1b	0.053019624
95	0x3d623f2f	0.055236038
96	0x3b2055fa	0.0024465309
97	0x3d1b0bde	0.037853114
98	0xbc9a8073	-0.018860077
99	0xbc269b7c	-0.010168906
100	0x3d4f3128	0.05058399
101	0xbc08bdcb	-0.008346031
102	0xbcbe342b	-0.023218235
103	0x3b4296d4	0.0029691951
104	0x3d11e7d2	0.03562147
105	0xbc69884d	-0.014253688
106	0x3d872b53	0.0660006
107	0x3d208dbb	0.039197665
108	0xbbd941d7	-0.006630163
109	0x3cf4cd9a	0.029883195
110	0x3d48a5be	0.04898619
111	0xbcacce1b	-0.021094372
112	0x3d0e3197	0.03471526
113	0x3d0ff307	0.03514388
114	0xbcad5546	-0.021158826
115	0x3d1d7088	0.038437396
116	0xbbd6a6b8	-0.006550636
117	0x3d121166	0.035661124
118	0xbb00ca42	-0.0019651805
119	0x3cd8123d	0.026375884
120	0xbcae96b7	-0.0213121
121	0x3d3a5df6	0.045499764
122	0x3cf32ad7	0.029683514
123	0x3d27a721	0.04093087
124	0x3d6509db	0.055917602
125	0x3d50a9cb	0.050943177
126	0x3d4ebcdd	0.050473083
127	0x3d0c2ad8	0.034220546

params:::Dense_1:::kernel f4 [128, 128]
0	0x3dbe4150	0.09289801
1	0x3e0322d7	0.12806259
2	0xbcd2fdd2	-0.025755797
3	0xbd8b060e	-0.06788264
4	0x3d64be03	0.05584527
5	0x3b71164d	0.0036786974
6	0xbdf1d90a	-0.11808975
7	0xbd4bda93	-0.049768995
8	0xbb070867	-0.0020604373
9	0x3dd80012	0.105468884
10	0xbb170ee2	-0.0023049642
11	0x3d207c5a	0.03918109
12	0xbbf8da10	-0.0075943545
13	0x3e0b4833	0.1360176
14	0xbdae691f	-0.08516144
15	0x3c88c62e	0.016696062
16	0x3d6061bf	0.054780718
17	0xbd9bb70c	-0.07603273
18	0xbe1edb25	-0.15513285
19	0x3bc82a2b	0.0061085424
20	0xbcd675ba	-0.026179183
21	0xbcdc34b5	-0.026880601
22	0xbcfbda57	-0.030743761
23	0x3dd3abbf	0.10335492
24	0xbdcf8597	-0.10132902
25	0xbe0bf08f	-0.13665985
26	0xbce95cff	-0.028486727
27	0xbd5fdf70	-0.054656446
28	0xbc866308	-0.016404644
29	0x3ba57672	0.00504952
30	0xbda4c59a	-0.08045502
31	0x3db2e1e7	0.08734494
32	0x3cb7279b	0.022357753
33	0x3c99395e	0.018704113
34	0x3dc18ca7	0.094506554
35	0x3d5e376b	0.05425207
36	0x3e060474	0.13087636
37	0xbdf4b088	-0.11947733
38	0xbdaa0cdd	-0.08303235
39	0x3d7cf58b	0.061757606
40	0xbcee2baf	-0.029073564
41	0x3d960c4f	0.073265664
42	0x3cd83caf	0.026396124
43	0x3cc85463	0.024454301
44	0xbd64e3ca	-0.0558813
45	0x3d5bbb20	0.053645253
46	0xbe2c6a44	-0.16837412
47	0xba4b844f	-0.0007763551
48	0xbe4b0122	-0.19824651
49	0x3d995920	0.07487702
50	0xbe221e66	-0.15831909
51	0x3dcdff57	0.10058468
52	0xba875a99	-0.0010326683
53	0x3d8d4b93	0.0689918
54	0xbdb5b25a	-0.088719085
55	0x3cd79195	0.026314536
56	0x3d5768ff	0.052590366
57	0x3e1b5d1b	0.15172236
58	0xbe2af095	-0.16693337
59	0xbe09dceb	-0.1346318
60	0x3d90f87b	0.07078644
61	0x3e1bbf67	0.15209733
62	0x3c4ceba0	0.012507349
63	0x3cc2707a	0.023735274
64	0xbd558112	-0.052125044
65	0x3e0e4a92	0.13895634
66	0xbe38ee03	-0.18059544
67	0x3c64d035	0.013965656
68	0x3ce504a3	0.027956313
69	0x3e3415d3	0.1758645
70	0x3d00672a	0.031348385
71	0xbe0c3344	-0.13691431
72	0x3e365519	0.178059
73	0xbd9eb8af	-0.07750069
74	0xbca3ffaf	-0.02001938
75	0xbd5036cb	-0.050833505
76	0xbdf721e0	-0.12067008
77	0xbdc1b833	-0.09458961
78	0xbdc3fedc	-0.09570095
79	0xbde13780	-0.10996914
80	0xbd3a7056	-0.04551729
81	0x3d21efb8	0.039535254
82	0x3d1d0fe0	0.038345218
83	0xbe40ca08	-0.18827069
84	0x3c648a42	0.013948979
85	0xbe241952	-0.16025284
86	0x3c90b3ec	0.017663918
87	0x3cae9aec	0.021314107
88	0x3d0d341e	0.03447353
89	0x3dccb0c3	0.09994652
90	0xbde8d47a	-0.11368652
91	0xbd95b21c	-0.07309362
92	0x3e3374aa	0.17524973
93	0xbddfdf37	-0.10931247
94	0xbe0c8cfe	-0.13725659
95	0x3e18e495	0.14930947
96	0xbd9ce320	-0.07660508
97	0xbcec5f42	-0.028854016
98	0x3d3961a7	0.045259144
99	0x3d81a8d2	0.06331028
100	0x3b7fbbc7	0.0039021836
101	0xbe34baf5	-0.17649443
102	0xbd22adf6	-0.039716683
103	0xbc04e6a7	-0.008111632
104	0xbcdcf0d3	-0.026970303
105	0xbd966bdd	-0.07344792
106	0xbd3c4119	-0.04596052
107	0xba9a5281	-0.0011773856
108	0xbbe38eb3	-0.0069445013
109	0x3e1414ca	0.14461055
110	0xbc889802	-0.016674045
111	0xbd09fb3f	-0.033686873
112	0x3e3c5d53	0.18394975
113	0xbc644003	-0.013931277
114	0x3da5853d	0.08082054
115	0x3e06b24a	0.1315395
116	0x3d48966b	0.048971575
117	0x3d6ae953	0.05735142
118	0xbdf769a2	-0.12080695
119	0x3b228214	0.002479677
120	0xbd6ea6f3	-0.058264684
121	0x3d7f5a30	0.06234187
122	0x3dd61cc2	0.10454704
123	0x3cd4c933	0.025974846
124	0x3d5d8ae2	0.054087527
125	0x3d04eeb8	0.032454222
126	0x3c51c80b	0.012804042
127	0x3b90566a	0.0044048326
128	0xbd8a43d4	-0.067512184
129	0x3d9eba8e	0.07750426
130	0x3d369e7c	0.044584736
131	0x3e30c3d3	0.17262201
132	0xbd7cd2b7	-0.06172439
133	0x3da27cba	0.07933946
134	0x3d061771	0.0327372
135	0x3e05093c	0.12991804
136	0x3c953715	0.018214742
137	0x3c97b167	0.01851721
138	0x3d8a431a	0.0675108
139	0xbe24c49f	-0.1609063
140	0x3d5ed860	0.05440557
141	0x3dbed403	0.09317782
142	0xbd081ae1	-0.03322876
143	0xbd18398b	-0.037164252
144	0xbe154dc0	-0.1458044
145	0xbe2b3b75	-0.167219
146	0x3e054b77	0.13017069
147	0xbdbaff9f	-0.09130787
148	0x3e29a7f1	0.16567971
149	0xbdfa689a	-0.122269824
150	0xbdae1ff6	-0.0850219
151	0x3e087393	0.13325338
152	0x3da3e657	0.08002918
153	0xbc31fee3	-0.010863992
154	0x3a8edaa7	0.0010898904
155	0x3c1d1128	0.00958661
156	0xbd7734e8	-0.06035319
157	0x3dbecbcb	0.09316214
158	0x3ddeb572	0.10874452
159	0xbcaafaa5	-0.02087147
160	0xbcd57dd8	-0.026060984
161	0xbd36fbf5	-0.04467388
162	0x3d8867c6	0.06660418
163	0x3d86959b	0.06571504
164	0x3d0ec66e	0.034857206
165	0x3dce10a5	0.100617684
166	0xbd61fc95	-0.05517252
167	0x3dbeddeb	0.09319671
168	0x3e50a782	0.20376399
169	0x3dbeecf3	0.09322538
170	0x3d57399a	0.052545168
171	0x3e1d6ebe	0.15374276
172	0xbe421e94	-0.18956977
173	0x3d84e892	0.06489672
174	0x3d136c06	0.03599169
175	0xbd5ed74a	-0.054404534
176	0x3db9d467	0.09073716
177	0x3d3617b3	0.044456195
178	0x3e0532a8	0.13007605
179	0xbda8f0b4	-0.082490355
180	0x3c900737	0.017581565
181	0x3de2c427	0.11072569
182	0xbda79129	-0.08181984
183	0x3d854297	0.06506842
184	0xbb58985d	-0.00330498
185	0x3dc7f19f	0.097628824
186	0x3e3d6bab	0.18498103
187	0x3dbe7855	0.09300295
188	0xbd8fbdd8	-0.07018632
189	0x3deece37	0.11660426
190	0xbc6f0595	-0.014588733
191	0xbdac1ac2	-0.08403541
192	0xbe1bea40	-0.15226078
193	0x3d805fd1	0.062682755
194	0x3b0873d1	0.0020820985
195	0x3dc334fe	0.09531592
196	0xbdbc4be2	-0.09194161
197	0x3de969fd	0.11397169
198	0x3d17738b	0.036975425
199	0x3d956cc1	0.07296134
200	0x3d6b726b	0.057482164
201	0x3c8164c2	0.015795115
202	0xbc756a95	-0.014979024
203	0xbe057d02	-0.13035968
204	0xbd3351d8	-0.043779224
205	0xbdf08997	-0.11744993
206	0x3d5b11e3	0.053483855
207	0x3d5f7d92	0.054563113
208	0xbc016d2b	-0.007899563
209	0xbd44ee8f	-0.04807907
210	0x3da7226e	0.08160864
211	0xbe090b53	-0.13383226
212	0x3d25c343	0.04046942
213	0xbe112144	-0.14172846
214	0x3bff17ab	0.007784804
215	0xbd7b1547	-0.06129959
216	0xbddbb4d7	-0.10727852
217	0xbe15dddb	-0.14635412
218	0x3d7f100d	0.062271167
219	0xbd349f18	-0.044097036
220	0xbe37688b	-0.17910974
221	0xbd925add	-0.07146237
222	0x3e0208eb	0.12698714
223	0xbd1e2460	-0.03860891
224	0x3c635fbd	0.013877806
225	0xbd03313b	-0.03202937
226	0x3c7ff4a2	0.01562229
227	0x3c23b9b0	0.009993002
228	0x3c13c14e	0.009018255
229	0xbda8ec7c	-0.08248231
230	0xbe1cf9f6	-0.15329728
231	0xbdb5c3d7	-0.08875244
232	0x3c45c097	0.012069843
233	0xbd609603	-0.054830562
234	0x3e028e22	0.12749532
235	0x3ac1d3af	0.0014787818
236	0x3c66a762	0.014077993
237	0xbd14bc08	-0.036312133
238	0xbc23ea39	-0.0100045735
239	0x3d33cd25	0.043896813
240	0x3dc7d1d3	0.09756818
241	0x3d621dd0	0.055204213
242	0xbccd9aca	-0.025098223
243	0xbbfd4fd7	-0.007730465
244	0xbd083f23	-0.033263337
245	0x3d86a590	0.06574547
246	0xbc4fa37f	-0.012673258
247	0xbe1c1fd8	-0.15246522
248	0x3d655e1a	0.055997945
249	0x3d52ce3f	0.051466223
250	0xbdfe1898	-0.12407035
251	0xbe08bab2	-0.13352469
252	0x3d0c99f6	0.034326516
253	0xbe3b8b51	-0.18314864
254	0xbd66a03f	-0.056305166
255	0xbdb9030e	-0.09033786

params:::Dense_2:::bias f4 [2]
0	0x3ce31e58	0.02772443
1	0x3ce7616f	0.028244702

params:::Dense_2:::kernel f4 [128, 2]
0	0x3bbd36fb	0.0057743764
1	0xbe08c04d	-0.13354607
2	0x3d578907	0.052620914
3	0x3d918622	0.07105662
4	0x3d4d5bf0	0.050136507
5	0x3dbf3594	0.09336391
6	0xbbdb3092	-0.0066891396
7	0xbd98db02	-0.074636474
8	0x3d7204a5	0.05908646
9	0x3ca2e671	0.019885274
10	0xbd6fef3b	-0.058577757
11	0x3b82e807	0.003994945
12	0x3ce2a850	0.027668148
13	0xbd498750	-0.04920131
14	0xbd7c4c83	-0.061596405
15	0xbcb77555	-0.022394815
16	0xbd274cf0	-0.040844858
17	0x3df651aa	0.12027295
18	0xbe234749	-0.15945162
19	0x3d799667	0.06093445
20	0xbde52e97	-0.11190527
21	0xbdd54c43	-0.104149364
22	0xbd123ad1	-0.035700623
23	0xbc1580b9	-0.009124928
24	0xbddf318d	-0.10898123
25	0xbdd255cd	-0.102702715
26	0xbd92e8dc	-0.07173321
27	0x3c6b1073	0.0143471835
28	0x3da522e5	0.08063296
29	0x3e5477a0	0.20748758
30	0x3df0a3c8	0.11749989
31	0x3e17ee92	0.14837101
32	0x3df08d67	0.1174572
33	0xbcab5db5	-0.020918706
34	0xbd56f2bf	-0.052477594
35	0xbd52c99a	-0.051461793
36	0xbce9d082	-0.028541807
37	0x3df1f61d	0.118145205
38	0x3cab88db	0.020939281
39	0xbd280e67	-0.04102936
40	0xbd77686b	-0.060402315
41	0xbdb70f41	-0.08938456
42	0xbcaef986	-0.021359216
43	0xbb7cf5cd	-0.0038598657
44	0x3d29ed98	0.041486353
45	0x3de76a83	0.112996124
46	0x3ddf53c8	0.10904652
47	0x3e18ba8c	0.14914912
48	0x3b0d9e90	0.0021609403
49	0xbdc09550	-0.09403479
50	0x3da98b18	0.08278483
51	0x3d1697b7	0.03676578
52	0x3d3faeb7	0.04679748
53	0xbd76461b	-0.06012545
54	0xbca714df	-0.020395694
55	0xb87d625d	-6.041151e-05
56	0x3e08929c	0.13337177
57	0x3d3c3dea	0.045957483
58	0x3d9f653c	0.07782981
59	0xbe0e9c7b	-0.1392688
60	0x3d724f2a	0.059157528
61	0x3dea8fa7	0.11453181
62	0x3db05f70	0.08611953
63	0xbd166465	-0.036716837
64	0x3dd2b66a	0.10288699
65	0x3dbc1d12	0.09185232
66	0x3dd70497	0.10498922
67	0x3d91d843	0.07121327
68	0x3d5bea9d	0.05369054
69	0x3e0141bf	0.12622736
70	0x3d0d59f6	0.03450962
71	0xbde9b36f	-0.11411177
72	0x3c9bdf16	0.019027274
73	0x3e074ce6	0.13212928
74	0x3d67137b	0.056415062
75	0x3c85d79e	0.016338166
76	0x3d3ab75f	0.045585033
77	0x3e823e23	0.25438032
78	0x3dd1c308	0.102422774
79	0xbe2c5667	-0.16829835
80	0x3da3c1cb	0.079959475
81	0x3cd31565	0.025767038
82	0x3dc3a587	0.09553056
83	0xbd9a5e87	-0.07537561
84	0x3d3d9575	0.04628511
85	0xbd51ae2d	-0.051191498
86	0x3b188dc2	0.0023277854
87	0x3dd7e3dd	0.10541508
88	0x3d7fae38	0.062422007
89	0x3d6fcb37	0.05854341
90	0xbe138a93	-0.1440833
91	0x3d9fa660	0.077954054
92	0x3e22377f	0.15841483
93	0x3ce5717d	0.028008217
94	0xbe131087	-0.14361773
95	0xbe1c2a6b	-0.15250556
96	0xbe2982b7	-0.1655377
97	0xbd957127	-0.07296973
98	0xbdce7ae7	-0.100820355
99	0x3d014257	0.031557407
100	0xbd7775d2	-0.060415097
101	0x3db38a7c	0.08766648
102	0xbd890880	-0.06691074
103	0xbcb566c9	-0.022143738
104	0x3d13cafe	0.03608226
105	0xbdce8117	-0.10083216
106	0xbd25af5d	-0.040450443
107	0xbd0820fa	-0.033234574
108	0x3e2f6564	0.17128521
109	0x3d8d9d07	0.06914716
110	0x3dcd6eb3	0.1003088
111	0xbd409d6e	-0.047025137
112	0x3e00d695	0.12581857
113	0x3cd1d9fd	0.02561664
114	0x3da97257	0.08273762
115	0x3d80abaf	0.06282746
116	0xbd5e8822	-0.054329045
117	0x3e12d447	0.1433879
118	0xbdac4f1b	-0.08413526
119	0xbd0e0d69	-0.034680758
120	0x3d429ca5	0.04751267
121	0xbd0223a3	-0.031772267
122	0xbca0c19f	-0.019623576
123	0xbd7ede95	-0.06222399
124	0xbe0195dc	-0.12654823
125	0xbcd35572	-0.02579758
126	0x3d78ee0a	0.060773887
127	0xbc1054b0	-0.008809254
128	0xbd244501	-0.04010487
129	0x3e1ae88c	0.15127772
130	0xbdde3a77	-0.10850995
131	0x3d407e3d	0.04699539
132	0x3e570b6f	0.21000455
133	0x3ddf2dcd	0.10897408
134	0xbc5857e2	-0.013204547
135	0x3e25649f	0.16151665
136	0xbdc60170	-0.09668243
137	0x3d61300f	0.054977473
138	0x3e31604a	0.17321888
139	0xbd8d282a	-0.06892426
140	0xbdda149f	-0.106484644
141	0x3ca64927	0.020298554
142	0xbdb347a1	-0.087538965
143	0x3e0b1450	0.13581967
144	0x3c5c64b3	0.013451743
145	0xbdbc7bd7	-0.09203308
146	0x3ddd0e88	0.10793787
147	0x3dc1653b	0.09443136
148	0x3de2eeab	0.110806786
149	0x3dd4add3	0.10384717
150	0xbceb5f77	-0.028732045
151	0xbe05750d	-0.13032933
152	0xbd54d89b	-0.051964384
153	0xbd90901a	-0.07058735
154	0xbcd5f3a0	-0.026117146
155	0x3d4e4118	0.050355047
156	0xbe2de57b	-0.16982071
157	0x3d1cacc3	0.038250696
158	0xbc3c30f1	-0.011486278
159	0xbd6ca980	-0.057778835
160	0xbe35c5f1	-0.1775129
161	0x3d7531b7	0.059861865
162	0xbcd33608	-0.0257826
163	0x3e6636cf	0.22481845
164	0x3d4b9660	0.049703956
165	0x3d2f3948	0.042779237
166	0xbc683b08	-0.01417423
167	0x3d44554f	0.04793292
168	0x3e57797d	0.21042438
169	0x3dfccaa5	0.12343339
170	0x3c311973	0.01080929
171	0xbe123131	-0.14276578
172	0x3d30687e	0.0430684
173	0x3e13611f	0.14392518
174	0x3c3d9e5d	0.011573401
175	0x3d8ad818	0.06779498
176	0xbd69565f	-0.056967136
177	0x3cb55472	0.022134993
178	0xbb4840b0	-0.0030556135
179	0xbd49dd07	-0.049283054
180	0xbe29e080	-0.16589546
181	0xbbfdacb2	-0.007741534
182	0x3db9adc0	0.09066343
183	0x3d25f007	0.04051211
184	0xbc82c69f	-0.01596385
185	0x3e31b73b	0.17355053
186	0x3c4b584a	0.0124111865
187	0xbe297034	-0.16546708
188	0x3da831f2	0.08212651
189	0x3c5a8612	0.013337629
190	0x3e5d4997	0.21610104
191	0x3da52eb8	0.080655515
192	0xbda8b53c	-0.08237693
193	0x3d70d88d	0.05880027
194	0x3d43bacc	0.047785565
195	0x3ab72761	0.0013973528
196	0xbdeac988	-0.1146422
197	0xbda24206	-0.07922749
198	0xbc859f20	-0.016311228
199	0xbb8ff783	-0.0043935194
200	0x3d318b72	0.043345876
201	0x3dc87c76	0.09789364
202	0x3d931293	0.07181277
203	0xbd8b693b	-0.068071805
204	0x3d54630d	0.051852275
205	0xbe1570c7	-0.14593802
206	0xbd4aa447	-0.049473073
207	0x3ce89008	0.028388992
208	0x3cafdcad	0.021467531
209	0x3c97694f	0.018482832
210	0xbc0940cf	-0.008377268
211	0xbd9a8cd2	-0.075463906
212	0x3e5cbe8b	0.21557061
213	0x3c890cf1	0.016729804
214	0x3d735415	0.05940636
215	0xbc8db4b5	-0.017298082
216	0xbdbbf214	-0.09177032
217	0x3d387b87	0.04503968
218	0x3db0f515	0.08640496
219	0x3df2f41f	0.11862969
220	0x3d195a94	0.037439898
221	0x3c90d5b5	0.017680028
222	0x3cb0f31f	0.021600304
223	0xbdae8d3f	-0.08523034
224	0xbd516b9a	-0.051128007
225	0x3d860f3c	0.065458745
226	0x3cc00188	0.02343823
227	0x3e1ebea9	0.15502419
228	0x3cc01474	0.023447253
229	0xbda5e523	-0.08100345
230	0x3d848ff6	0.06472771
231	0xbc8ab507	-0.016932024
232	0xbd25f99f	-0.04052126
233	0xbbde376f	-0.0067815105
234	0x3dd76408	0.10517126
235	0x3e12e4ca	0.14345089
236	0x3cf0bb33	0.029386139
237	0xbe17a22f	-0.14807962
238	0xbd8e69ed	-0.069537975
239	0x3e129bdf	0.14317273
240	0xbdb846a0	-0.08997846
241	0x3c379a50	0.011206225
242	0x3ce82bd2	0.028341208
243	0x3da2b913	0.07945456
244	0x3e3dfdc3	0.18553834
245	0x3dc539b3	0.09630146
246	0x3df17c10	0.11791241
247	0x3d861bf4	0.065483004
248	0x3d2cbd47	0.042172696
249	0x3e0262a2	0.12732938
250	0xbc1e662d	-0.009667915
251	0x3db6b6e9	0.08921606
252	0x3e0f4375	0.13990577
253	0x3da02a4b	0.07820567
254	0x3df6b065	0.12045363
255	0xbc57e4da	-0.013177121
